…
e(units=84, activation='relu'))\n","  model.add(tf.keras.layers.Dense(units=10, activation = 'softmax'))\n","  \n","  return model\n","\n","print('Model Structure & Parameters:')\n","model = myCNN()\n","model.summary()"],"execution_count":2,"outputs":[{"output_type":"stream","name":"stdout","text":["Model Structure & Parameters:\n","Model: \"sequential\"\n","_________________________________________________________________\n"," Layer (type)                Output Shape              Param #   \n","=================================================================\n"," conv2d (Conv2D)             (None, 25, 25, 16)        272       \n","                                                                 \n"," max_pooling2d (MaxPooling2D  (None, 12, 12, 16)       0         \n"," )                                                               \n","                                                                 \n"," conv2d_1 (Conv2D)           (None, 10, 10, 32)        4640      \n","                                                                 \n"," max_pooling2d_1 (MaxPooling  (None, 5, 5, 32)         0         \n"," 2D)                                                             \n","                                                                 \n"," conv2d_2 (Conv2D)           (None, 3, 3, 32)          9248      \n","                                                                 \n"," max_pooling2d_2 (MaxPooling  (None, 1, 1, 32)         0         \n"," 2D)                                                             \n","                                                                 \n"," flatten (Flatten)           (None, 32)                0         \n","                                                                 \n"," dense (Dense)               (None, 140)               4620      \n","                                                                 \n"," dense_1 (Dense)             (None, 84)                11844     \n","                                                                 \n"," dense_2 (Dense)             (None, 10)                850       \n","                                                                 \n","=================================================================\n","Total params: 31,474\n","Trainable params: 31,474\n","Non-trainable params: 0\n","_________________________________________________________________\n"]}]},{"cell_type":"markdown","metadata":{"id":"-O5S7lao_4nD"},"source":["# Optimization Parameters
…
